supervised-learning/example/model/model.pth (torch, 519970 bytes, 13 tensors)

encoder1.weight_ih_l0 f4 [512, 24]
0	0x3e2f2194	0.17102653
1	0x3e3e2b1a	0.1857113
2	0xbd8329ca	-0.06404455
3	0xbe518ed7	-0.20464645
4	0xbd80c668	-0.06287843
5	0x3de4e900	0.11177254
6	0x3cda4000	0.026641846
7	0xbd814900	-0.06312752
8	0xbe3561a7	-0.17713033
9	0xbe036f58	-0.12835443
10	0xbc2ac1e6	-0.010422206
11	0xbd124330	-0.035708606
12	0x3d0c4a55	0.034250576
13	0x3d961789	0.07328708
14	0xbd6e612b	-0.058198135
15	0xbd2cb786	-0.04216721
16	0x3e0198e2	0.12655976
17	0x3d33cd6e	0.043897085
18	0x3ccd3710	0.02505067
19	0x3d903313	0.07040992
20	0x3bbaeb03	0.005704285
21	0x3ce1fef7	0.027587397
22	0xbd8c3495	-0.06845967
23	0xbd6b6334	-0.057467654
24	0x3de36e71	0.111050494
25	0x3d2eadf9	0.042646382
26	0xbe94700b	-0.28991732
27	0xbd8ec439	-0.0697102
28	0xbcfd6ae2	-0.030934755
29	0xbdcf6a95	-0.10127751
30	0x3d7a3680	0.06108713
31	0xbe1aeb04	-0.15128714
32	0xbe1f4c24	-0.15556389
33	0xbd7990e9	-0.060929213
34	0xbdd2ee31	-0.10299338
35	0xbde3717c	-0.1110563
36	0x3d820aef	0.06349742
37	0x3d99ee3b	0.07516142
38	0xbdf97512	-0.121805325
39	0x3d1286ea	0.035773195
40	0x3d33c906	0.043892883
41	0x3d02cb5a	0.031932212
42	0x3d71bff5	0.059020955
43	0xbc0ecadd	-0.008715359
44	0xbdd7179f	-0.10502552
45	0xbd4bf377	-0.049792733
46	0xbcfa88c2	-0.03058279
47	0xbc611987	-0.013738996
48	0x3dd8dd86	0.10589127
49	0xbcdc8983	-0.02692104
50	0xbded009a	-0.1157238
51	0x3dbb86eb	0.09156593
52	0xbd23d5c2	-0.039998777
53	0xbc6ca8a2	-0.014444502
54	0xbd936353	-0.07196679
55	0xbd590d14	-0.052990988
56	0xbdbed89d	-0.093186595
57	0xbd0cc820	-0.03437054
58	0x3e08e0a5	0.13366945
59	0xbc305bd5	-0.010764082
60	0x3d11375e	0.035453193
61	0xbda9005b	-0.08252021
62	0xbd81d941	-0.06340266
63	0x3e08e515	0.13368638
64	0xbe98df41	-0.2985783
65	0xbe0ee9f2	-0.1395643
66	0xbdc71d52	-0.09722389
67	0x3cb87ece	0.022521403
68	0x3d1d9409	0.038471255
69	0x3dbba37c	0.091620415
70	0xbabf886a	-0.0014612798
71	0x3d94fb64	0.072745115
72	0xbc8dc0d7	-0.017303867
73	0x3dfb2d33	0.122644804
74	0xbe5f864c	-0.21828574
75	0x3ce9490c	0.028477214
76	0x3c8342ed	0.016023124
77	0x3d3165ac	0.043309852
78	0x3da20309	0.07910735
79	0xbd106eec	-0.035262033
80	0x3d4d83ab	0.050174396
81	0xbbc35d17	-0.005962025
82	0x3e19e9d4	0.15030605
83	0x3e0ea2cc	0.1392929
84	0xbd9b6d74	-0.07589236
85	0x3d676539	0.056493018
86	0x3d31a031	0.04336566
87	0x3e6f0634	0.2334221
88	0x3e20b40e	0.15693685
89	0xbe1063cf	-0.14100574
90	0x3cc5e977	0.024159176
91	0x3cde4964	0.027134605
92	0x3de4cc38	0.11171764
93	0x3ea425b0	0.32060003
94	0xbcf2f153	-0.029656088
95	0xbc1daa0f	-0.009623065
96	0xbe45c8d7	-0.19314896
97	0xbea519b9	-0.32246187
98	0x3e8d60d3	0.27612934
99	0x3e38cd10	0.18046975
100	0x3d458295	0.048220236
101	0x3d45c08b	0.048279326
102	0x3c972ece	0.018454935
103	0x3e64f896	0.22360453
104	0x3e00f061	0.12591697
105	0x3e04ba73	0.1296175
106	0xbc975d2e	-0.018477049
107	0xbcfc5420	-0.030801833
108	0x3dc5eb64	0.09664038
109	0x3d6e14b6	0.05812522
110	0x3dc78d3c	0.09743735
111	0xbe35effe	-0.17767331
112	0xbe34b614	-0.17647582
113	0x3dd78dd5	0.10525099
114	0x3e7c632f	0.2464721
115	0x3dafd3bf	0.08585309
116	0xbe2ce925	-0.16885813
117	0xbe286c64	-0.16447598
118	0x3e0607b5	0.13088877
119	0x3ddb1803	0.10697939
120	0x3d405f32	0.046965785
121	0xbd3a4448	-0.045475274
122	0x3d3a1971	0.04543442
123	0x3c867444	0.016412862
124	0x3d83c4fd	0.06434057
125	0xbda583dd	-0.080817915
126	0x3c8bf073	0.017082429
127	0xbdc51aff	-0.0962429
128	0xbdac205c	-0.084046096
129	0x3d2dc843	0.042427313
130	0x3cb19419	0.021677064
131	0xbd0f430a	-0.034976043
132	0xbd6d3926	-0.05791583
133	0xbd779471	-0.0604443
134	0xbc8e21d4	-0.017350115
135	0x3dbf434b	0.09339007
136	0xbd802628	-0.06257278
137	0xbe2908cd	-0.16507263
138	0xbdd51a1c	-0.104053706
139	0xbdaa0a63	-0.08302762
140	0x3daad4f4	0.08341399
141	0xbcf2effe	-0.029655453
142	0xbd329ccc	-0.043606564
143	0x3d8cdc0a	0.068779066
144	0xbcb3409f	-0.0218814
145	0x3d5a8ae2	0.053355105
146	0x3d97a63b	0.07404753
147	0x3cfdf142	0.03099883
148	0x3deea163	0.11651876
149	0xbdb50924	-0.08839634
150	0xbd4faa80	-0.05069971
151	0xbd1c34d4	-0.03813632
152	0x3db1200d	0.08648691
153	0xbc8f7188	-0.01751019
154	0xbb81102e	-0.0039386963
155	0x3d7db112	0.061936446
156	0xbd089f10	-0.03335482
157	0xbe1b9812	-0.15194729
158	0xbb518592	-0.0031970483
159	0x3d549bc7	0.051906373
160	0xbc105dcd	-0.008811426
161	0xbe0f2da3	-0.13982253
162	0xbdae47c1	-0.0850978
163	0xbdc49e0e	-0.09600459
164	0x3c343f62	0.01100144
165	0x3e13d1b0	0.14435458
166	0x3d94c1bc	0.072635144
167	0x3d401a36	0.046899997
168	0x3d506286	0.05087521
169	0x3db1f140	0.08688593
170	0xbdd23571	-0.102640994
171	0x3d21ad92	0.03947217
172	0xbda7668a	-0.08173855
173	0x3d29f675	0.041494805
174	0xbdc7be9d	-0.097531535
175	0xbd95a862	-0.07307507
176	0x3bf8afe9	0.0075893295
177	0x3c18c9a2	0.009325417
178	0xbc336017	-0.010948203
179	0xbadd1ae6	-0.0016868978
180	0xbcebd2d2	-0.02878705
181	0xbc1d8cd9	-0.0096161
182	0xbd9e0582	-0.07715894
183	0x3e5ff3f7	0.21870409
184	0xbcca34f7	-0.024683459
185	0xbda9ae95	-0.08285252
186	0x3b811d14	0.003940234
187	0xbc9aabf8	-0.01888083
188	0x3b223ebe	0.0024756636
189	0x3e1dc45a	0.15406933
190	0xbd1d06ef	-0.03833669
191	0xbd4ef486	-0.050526164
192	0xbe4c0c6c	-0.19926614
193	0xbdf35286	-0.118809745
194	0x3db3e98b	0.08784779
195	0x3c9b8027	0.018982006
196	0xbd4899c1	-0.048974756
197	0x3cbe431e	0.023225363
198	0xbc31d24d	-0.010853362
199	0x3d21ef80	0.039535046
200	0x3e432966	0.19058761
201	0x3c778e98	0.015109681
202	0x3c8e929d	0.017403895
203	0xbd9c365e	-0.07627557
204	0x3d77432d	0.0603668
205	0xba475457	-0.0007603815
206	0x3e1867c1	0.14883329
207	0x3cb1909e	0.021675404
208	0x3d8a5e8b	0.06756314
209	0x3b0649da	0.0020490796
210	0x3dcde3eb	0.100532375
211	0xbd6122f2	-0.054964967
212	0x3d00bb44	0.03142859
213	0x3d0dfcb2	0.034664817
214	0x3d628941	0.055306677
215	0x3e235977	0.15952097
216	0xbc8d8a1e	-0.017277773
217	0xbe4b7ab4	-0.19871026
218	0xbd9d2434	-0.07672921
219	0x3d92a752	0.0716082
220	0x3e5392b0	0.20661426
221	0x3e3c61cc	0.18396682
222	0x3e2689ca	0.162635
223	0x3d1ee0d8	0.038788646
224	0x3e174727	0.14773236
225	0x3e1cfcae	0.15330765
226	0x3e285707	0.16439448
227	0x3e3d6f99	0.18499602
228	0x3e567a76	0.20945153
229	0x3e048204	0.12940222
230	0x3e4648aa	0.19363657
231	0x3e28bbda	0.1647791
232	0x3d7afe89	0.0612779
233	0xbe705f8d	-0.2347395
234	0x3e653ef9	0.22387303
235	0x3d63a087	0.055573013
236	0x3db7096a	0.089373425
237	0x3d80701b	0.062713824
238	0x3e09d5f0	0.13460517
239	0x3ce78e7f	0.02826619
240	0xbdf5d85a	-0.120041564
241	0x3d0d965b	0.03456722
242	0xbe59616e	-0.21228573
243	0x3df39827	0.11894255
244	0x3dbdf930	0.09276044
245	0x3d932b1b	0.07185956
246	0x3c823696	0.01589517
247	0xbc863147	-0.01638092
248	0x3dcba3d8	0.0994336
249	0x3d745369	0.05964986
250	0xbd10ef73	-0.035384607
251	0x3cccbec6	0.024993312
252	0x3c65cc7a	0.014025802
253	0xbc2cfe02	-0.010558607
254	0xbd93bb0a	-0.07213409
255	0xbe54c3c7	-0.20777808

encoder1.weight_hh_l0 f4 [512, 128]
0	0xbdc1dfb3	-0.09466495
1	0x3e81ff48	0.25390077
2	0xbce31dcd	-0.027724171
3	0x3e4a2986	0.19742402
4	0xbdfc83f3	-0.12329855
5	0x3d832b16	0.06404702
6	0xbe8e9590	-0.27848482
7	0xbef87786	-0.4852869
8	0x3d8e3876	0.06944363
9	0x3d68010a	0.056641616
10	0xbd7e64ac	-0.062107727
11	0x3da8e686	0.08247094
12	0xbcaee530	-0.02134952
13	0xbd2eed31	-0.042706672
14	0x3d9af94a	0.07567079
15	0xbe16ed3d	-0.14738937
16	0xbddf15ab	-0.10892805
17	0xbd7bc916	-0.061471067
18	0xbccc6fa5	-0.02495558
19	0xbe6dc795	-0.23220666
20	0x3e839494	0.25699294
21	0x3e02bab7	0.12766539
22	0x3e754c1f	0.23954819
23	0xbe2b14e5	-0.1670719
24	0x3e8e1639	0.2775133
25	0xbec33a9d	-0.38130656
26	0x3c504574	0.012711871
27	0x3dc3fd9a	0.09569855
28	0x3dab56ec	0.083661884
29	0xbd4129d1	-0.04715902
30	0x3bfa2c66	0.0076346872
31	0xbef9a76d	-0.48760548
32	0xbd7dbc8c	-0.06194739
33	0x3da506fc	0.08057973
34	0x3e0baa1a	0.13639107
35	0xbe663d82	-0.22484401
36	0x3d4f6494	0.05063303
37	0x3c949ab7	0.01814018
38	0x3dd44e36	0.1036648
39	0x3d91e1fa	0.0712318
40	0xbd5dcbcc	-0.054149434
41	0x3d3f268d	0.046667624
42	0xbd5cb97a	-0.05388782
43	0x3d12c543	0.035832655
44	0xbd190efe	-0.037367813
45	0xbe50eae1	-0.20402099
46	0x3e3642a3	0.17798857
47	0xbdb5b9a7	-0.08873301
48	0x3d2e925a	0.04262004
49	0x3e7ab5fb	0.24483483
50	0x3d888a0d	0.06666956
51	0x3e483821	0.19552661
52	0x3db9e5de	0.09077047
53	0xbdc88347	-0.09790664
54	0x3d8d700a	0.069061354
55	0x3e1c769e	0.15279624
56	0xbb90236e	-0.004398755
57	0x3d737685	0.0594392
58	0xbe0f254f	-0.13979076
59	0x3e2ce58a	0.16884437
60	0x3b7068e8	0.0036683623
61	0xbd237014	-0.039901808
62	0xbe03e2ac	-0.12879437
63	0x3c21854b	0.00985844
64	0xbe02fdc5	-0.12792118
65	0x3e8dc39e	0.27688307
66	0xbdca850c	-0.09888658
67	0xbd3b31f4	-0.045701936
68	0xbe69a7cf	-0.2281792
69	0x3de6609a	0.11248894
70	0xbdbc3f26	-0.09191732
71	0x3e037b5e	0.1284003
72	0xbdec73cb	-0.11545523
73	0x3dc2ade8	0.09505826
74	0xbbbae883	-0.005703987
75	0xbded15bb	-0.115764104
76	0x3e0a75ad	0.13521452
77	0x3d5d421c	0.054018125
78	0xbe13b838	-0.14425743
79	0xbd4a4bed	-0.049388815
80	0xbdf8261d	-0.121166445
81	0x3e175065	0.14776762
82	0x3d655898	0.055992693
83	0xbc3c245d	-0.011483279
84	0x3e30d108	0.17267239
85	0xbe5548b5	-0.20828517
86	0xbc899a33	-0.01679716
87	0x3e04cd8c	0.12969035
88	0x3d41a8d7	0.04728016
89	0xbd86729d	-0.065648295
90	0xbc6a28a6	-0.014291918
91	0xbe0b03ff	-0.13575743
92	0x3db741ae	0.08948074
93	0xbdcee5d9	-0.10102434
94	0x3d3789a0	0.044808984
95	0x3d47799d	0.048699964
96	0xbd489648	-0.048971444
97	0x3c8f1988	0.017468229
98	0xbdaa5945	-0.08317808
99	0x3d83c962	0.06434895
100	0xbd2aa42c	-0.041660473
101	0x3d587493	0.05284555
102	0xbde85aae	-0.11345421
103	0x3e3f5c8d	0.18687649
104	0xbdb51716	-0.08842294
105	0xbe183dab	-0.14867274
106	0x3e395bd1	0.18101431
107	0xbe49e3eb	-0.1971585
108	0x3e1a5b20	0.15073824
109	0x3e89445b	0.26809964
110	0xbe2a2f78	-0.1661967
111	0xbe22e3e3	-0.15907244
112	0x3da658c6	0.08122401
113	0xbdbcfb1b	-0.09227582
114	0xbdc46e65	-0.095913686
115	0xbe1897a7	-0.14901601
116	0x3e8b2ff2	0.27185017
117	0x3d9dbc49	0.07701928
118	0xbd7484ba	-0.05969689
119	0x3c1d1dad	0.009589595
120	0xbe0b1734	-0.1358307
121	0xbd8a4c5b	-0.06752845
122	0xbf038240	-0.5137062
123	0xbcba1519	-0.022715138
124	0x3d47783a	0.04869864
125	0xbdf73054	-0.12069765
126	0xbe17eac2	-0.14835647
127	0x3dddcc2d	0.10829959
128	0xbecd4793	-0.4009367
129	0x3c040320	0.008057386
130	0xbe46df5e	-0.19421145
131	0x3cd76c6f	0.026296822
132	0x3e059df1	0.13048531
133	0xbe8ccd7a	-0.27500516
134	0xbe0d915a	-0.13824978
135	0xbe18a90a	-0.14908233
136	0xbd57e88a	-0.052712
137	0xbd3c7dc9	-0.046018396
138	0xbdb98aaa	-0.09059651
139	0x3e9d2db0	0.3069892
140	0xbdd41f5c	-0.10357544
141	0x3eab9123	0.33509168
142	0x3dc175d8	0.09446305
143	0xbe0e2b53	-0.13883714
144	0xbdea59cf	-0.11442911
145	0xbe191ee3	-0.14953189
146	0xbd371e40	-0.044706583
147	0xbb4ef3a1	-0.003157832
148	0x3e1ad02f	0.15118478
149	0x3e5cb4e7	0.21553384
150	0xbda2484e	-0.07923947
151	0xbe32dbc1	-0.17466642
152	0x3e1d4135	0.15356906
153	0xbebb0803	-0.3652955
154	0xbde4a3a9	-0.11164028
155	0xbd3c0bc2	-0.04590965
156	0x3ed9f723	0.42571363
157	0x3c212247	0.0098348325
158	0x3e313e49	0.17308916
159	0x3db559af	0.088549964
160	0x3e3caf2c	0.18426198
161	0x3d9c1f2f	0.07623135
162	0xbdc36467	-0.095406346
163	0xbe9544cf	-0.2915406
164	0x3e1df29f	0.15424584
165	0xbde8bfbb	-0.11364695
166	0x3e1d1168	0.15338671
167	0xbd8cc9ce	-0.06874429
168	0xbdef36b6	-0.11680357
169	0x3ed40d49	0.41416386
170	0xbe4a815f	-0.19775914
171	0x3e7c004d	0.2460949
172	0x3d17cbcc	0.03705959
173	0xbd029fb6	-0.031890593
174	0xbcde3f03	-0.027129656
175	0x3d3ac274	0.0455956
176	0x3ea0964a	0.3136466
177	0x3df69460	0.12040019
178	0x3da3198f	0.07963859
179	0x3cc983b2	0.02459893
180	0x3b808b07	0.0039228234
181	0x3e95d597	0.2926452
182	0x3e84a838	0.2590959
183	0x3e6e7cab	0.23289745
184	0xbe8b46a6	-0.27202338
185	0x3d99128d	0.074742414
186	0x3ed3a5a0	0.413373
187	0x3caa9eca	0.02082767
188	0xbd2fa3d5	-0.04288085
189	0xbdd898cd	-0.105760194
190	0xbe355a11	-0.17710139
191	0x3e35c870	0.17752242
192	0x3d327d1f	0.043576356
193	0x3c1bdc64	0.009512994
194	0x3d19f934	0.037591174
195	0xbe2f1c8c	-0.17100734
196	0xbebbf554	-0.36710608
197	0xbe060005	-0.13085945
198	0x3d1fac95	0.038982946
199	0x3d81bcd8	0.06334847
200	0xbe57f1f8	-0.21088398
201	0x3d93405e	0.071900114
202	0x3e9dfa89	0.30855206
203	0x3e277154	0.16351825
204	0x3d2dfb4b	0.04247598
205	0x3cab1d43	0.020887977
206	0x3dafb756	0.085798904
207	0xbe4389b5	-0.190955
208	0xbdf84d5f	-0.12124132
209	0x3b5dff97	0.0033874267
210	0xbdbf286a	-0.0933388
211	0xbc44dac7	-0.012015051
212	0xbe2e33c8	-0.1701194
213	0xbda5cc59	-0.08095617
214	0x3d33ee59	0.043928478
215	0x3c05c60c	0.008164894
216	0xbecaba16	-0.39595097
217	0xbe8f8a81	-0.28035358
218	0xbe621840	-0.22079563
219	0x3e74eee2	0.23919252
220	0x3d9a059b	0.075206004
221	0x3e5b45a5	0.21413286
222	0x3d7aaaba	0.061197974
223	0xbd2942f1	-0.041323606
224	0x3d3ce87c	0.046120152
225	0x3cebb5aa	0.028773148
226	0x3cfbfd1c	0.03076034
227	0xbea6a28d	-0.3254589
228	0x3e1bf6a8	0.1523081
229	0x3d95b68b	0.07310208
230	0xbdbfb961	-0.0936153
231	0x3d6e4a39	0.058176253
232	0xbe9110a6	-0.28333014
233	0x3c62b6c6	0.013837522
234	0x3e10d802	0.141449
235	0xbeea0d08	-0.45713067
236	0x3e699ff8	0.2281493
237	0x3d2fe90b	0.042946856
238	0xbd8e9e19	-0.069637485
239	0x3c1e8ef6	0.009677639
240	0x3e58e156	0.21179709
241	0xbdd54464	-0.10413435
242	0xbe787fbc	-0.24267477
243	0x3e5d3165	0.21600874
244	0xbd6ffd8b	-0.058591407
245	0xbe936399	-0.28786924
246	0x3e8ebb6a	0.2787736
247	0x3e667ac0	0.22507763
248	0xbe4498c8	-0.19198906
249	0xbe1a2188	-0.15051854
250	0xbdea2475	-0.11432735
251	0x3d487249	0.048937116
252	0x3cad5431	0.02115831
253	0xbd9f595d	-0.077807166
254	0x3e20d69f	0.15706871
255	0x3e54ee23	0.20793967

encoder1.bias_ih_l0 f4 [512]
0	0xbe8e417f	-0.27784345
1	0xbef6e70d	-0.48223153
2	0x3d5fd33d	0.054644812
3	0x3db59387	0.08866029
4	0x3e3b6658	0.1830076
5	0xbd9a2fa5	-0.07528619
6	0xbe4c3a61	-0.19944145
7	0x3e3f17ba	0.18661395
8	0xbdc424df	-0.09577345
9	0xbe9cd698	-0.30632472
10	0xbd9f3e7c	-0.0777559
11	0x3dad871b	0.08473035
12	0xbf000550	-0.50008106
13	0xbe6914a4	-0.2276178
14	0xbe629589	-0.22127356
15	0xbd201521	-0.03908265
16	0xbe496f89	-0.19671454
17	0x3e46e9ac	0.19425076
18	0xbe717634	-0.23580247
19	0xbeaee09e	-0.34155744
20	0x3e24fa22	0.16111043
21	0x3cba07b0	0.022708744
22	0xbd4a2cc1	-0.049359087
23	0xbdc0b0de	-0.09408735
24	0x3d8205e2	0.06348778
25	0x3e0778f8	0.1322974
26	0x3e2c28f8	0.16812503
27	0xbe2e5991	-0.17026354
28	0x3d2de1b2	0.042451568
29	0xbe0ff3e6	-0.14057884
30	0xbe88b2af	-0.26698825
31	0x3e81fe17	0.25389168
32	0x3d37d4c9	0.044880662
33	0xbd85427f	-0.06506824
34	0xbd970d51	-0.07375587
35	0xbdd86ceb	-0.105676495
36	0xbea67eb9	-0.32518557
37	0xbece5bd7	-0.40304443
38	0xbd8cb35d	-0.06870148
39	0xbefe3082	-0.49646384
40	0xbdd96f83	-0.10616972
41	0xbefdcbe1	-0.4956961
42	0xbe4bd1e6	-0.19904289
43	0x3e611b03	0.2198296
44	0xbe9d757f	-0.30753705
45	0xbce4fc7c	-0.027952425
46	0xbd8390d0	-0.06424105
47	0xbcc7c456	-0.024385612
48	0xbde3a56b	-0.11115535
49	0xbe4450df	-0.19171475
50	0xbe2b0104	-0.16699606
51	0xbe2f2154	-0.17102557
52	0xbe69e73a	-0.22842112
53	0xbeff2576	-0.49833268
54	0xbdedb0d3	-0.11605992
55	0xbdd5a65d	-0.10432122
56	0xbc95f87b	-0.018306961
57	0xbd89e093	-0.06732287
58	0xbdd756c4	-0.10514596
59	0x3cacfd26	0.021116804
60	0xbe32594f	-0.17416881
61	0xbde6b2e6	-0.11264591
62	0xbee00bf4	-0.4375912
63	0xbe48c6bb	-0.1960706
64	0x3c24ab38	0.010050587
65	0xbe3d2c2e	-0.18473884
66	0xbe3c6bc6	-0.18400487
67	0x3bc37f0d	0.0059660734
68	0x3c2e65d9	0.0106444
69	0xbce7dd60	-0.028303802
70	0xbead677b	-0.33868012
71	0xbeceed9d	-0.4041566
72	0xbdb1477b	-0.08656212
73	0xbe0f9254	-0.14020663
74	0xbeb1b35c	-0.34707153
75	0xbd5f335f	-0.05449235
76	0xbe4064ae	-0.18788406
77	0x3d537265	0.051622767
78	0xbebfa50b	-0.37430605
79	0xbe4393f7	-0.19099413
80	0x3d6848c5	0.056710023
81	0xbe51c7fc	-0.20486444
82	0x3d1d76da	0.038443424
83	0xbec97ad0	-0.3935151
84	0xbf062ad6	-0.5240911
85	0x3ccde045	0.025131354
86	0xbddbc210	-0.10730374
87	0xbe5cff1a	-0.21581689
88	0xbe7d0d90	-0.24712205
89	0xbea4fa9e	-0.32222456
90	0x3dd85925	0.10563878
91	0xbdb48b3d	-0.0881562
92	0xbea83c3c	-0.32858455
93	0xbe21a832	-0.15786818
94	0xbd9844d0	-0.07435
95	0x3d407ca3	0.046993863
96	0xbe30b4d7	-0.17256485
97	0x3e22b888	0.15890706
98	0xbd3969bf	-0.045266863
99	0x3d170f4a	0.036879815
100	0xbd0511ac	-0.032487556
101	0xbcd3d371	-0.025857659
102	0xbeae4761	-0.34038833
103	0x3d267611	0.04063994
104	0xbd98b8bd	-0.07457111
105	0xbd8fe4e7	-0.070260815
106	0xbd7ec7e6	-0.062202357
107	0xbeabb42d	-0.335359
108	0xbdd0d4fb	-0.10196873
109	0xbd64ff4d	-0.055907536
110	0x3e133eb4	0.14379388
111	0xbe5fd396	-0.21858057
112	0xbe32d6b0	-0.1746471
113	0xbf10b433	-0.5652496
114	0xbea8139b	-0.32827458
115	0x3d0eee34	0.034895137
116	0x3e6ac483	0.22926526
117	0xbdaf3277	-0.08554547
118	0xbc87e806	-0.01659013
119	0xbe6cf4fa	-0.23140326
120	0xbed21fa4	-0.41039765
121	0x3e2339e2	0.1594005
122	0x3eab01df	0.33399865
123	0xbdf7f91b	-0.1210806
124	0x3e437970	0.19089293
125	0x3d8665cf	0.06562387
126	0xbe1028ef	-0.14078115
127	0xbe637d09	-0.22215666
128	0xbc6c1aac	-0.014410656
129	0xbe4c5fe4	-0.19958454
130	0x3e0b3ae8	0.1359669
131	0x3e520276	0.20508751
132	0xbe7b96d3	-0.24569254
133	0x3ec474d9	0.38370398
134	0x3e27d883	0.16391186
135	0xbdf274b5	-0.11838666
136	0xbdafd774	-0.08586016
137	0xbe344cc7	-0.17607413
138	0x3e3918cc	0.18075866
139	0x3e5f66ce	0.2181656
140	0xbe09a571	-0.13442017
141	0x3e27f41f	0.16401719
142	0xbe07011c	-0.13184017
143	0x3d9ea652	0.07746567
144	0xbc8b2343	-0.016984588
145	0x3d0262bb	0.031832438
146	0xbd38dad0	-0.04513055
147	0x3d275991	0.0408569
148	0x3deed40e	0.1166154
149	0x3e184fa0	0.14874125
150	0x3cb61d1a	0.022230674
151	0x3eb54c36	0.35409707
152	0x3e73c500	0.23805618
153	0x3dc4a2a5	0.096013345
154	0xbc97dc04	-0.018537529
155	0xbcb8f88c	-0.022579454
156	0xbe922482	-0.28543478
157	0xbda9e030	-0.082947135
158	0x3d895057	0.06704777
159	0xbd9830f5	-0.07431213
160	0x3e22a657	0.15883766
161	0xbd476223	-0.048677575
162	0xbdd2f3fb	-0.10300442
163	0x3e2b4f7b	0.16729538
164	0xbe2af62e	-0.16695473
165	0xbdf306c8	-0.11866528
166	0xbd82ee2b	-0.06393083
167	0xbbcb6c10	-0.0062079504
168	0xbddb99e7	-0.10722714
169	0x3dd23950	0.10264838
170	0xbcf04999	-0.02933197
171	0xbd0e81d4	-0.034791782
172	0xbdf385e6	-0.118907735
173	0x3d8b14f7	0.06791108
174	0xbc959faa	-0.01826461
175	0x3d3f170a	0.04665283
176	0x3d98fe61	0.07470394
177	0x3de09508	0.109659255
178	0x3def3e31	0.11681784
179	0x3d175eee	0.036955766
180	0x396dc3c4	0.0002267501
181	0xbd959e9a	-0.073056415
182	0xbc9a6055	-0.018844763
183	0x3d2d3200	0.04228401
184	0x3e2936f9	0.16524877
185	0x3e2601ce	0.16211626
186	0x3e0a1978	0.13486278
187	0x3c4bfc71	0.012450323
188	0xbd59d2d1	-0.053179566
189	0x3e32b1f8	0.17450702
190	0xbe1efa0f	-0.15525077
191	0x3e02a958	0.12759912
192	0x3da72113	0.08160605
193	0x3d4584af	0.04822224
194	0xbe80bb47	-0.2514288
195	0x3d950a4c	0.072773546
196	0xbde5affe	-0.112152085
197	0x3d059609	0.032613788
198	0xbe1b6279	-0.15174283
199	0xbdcf1603	-0.1011162
200	0x3e4271fb	0.18988793
201	0x3e4650d0	0.19366765
202	0x3e026332	0.12733153
203	0x3dafc05f	0.08581614
204	0x3e29d9d5	0.16587003
205	0xbd1bfdfd	-0.03808402
206	0x3d58d607	0.052938487
207	0x3d8ec4d3	0.06971135
208	0x3e3a2879	0.18179502
209	0x3c81dc3a	0.015852083
210	0x3cd0c3e1	0.025484027
211	0xbe60c1de	-0.21948954
212	0x3dbff43d	0.09372757
213	0xbe4c0bb6	-0.19926342
214	0x3e4bacc7	0.19890128
215	0xbce840f1	-0.028351279
216	0x3de676cc	0.112531275
217	0x3d02d6c3	0.031943094
218	0xbbf8a3aa	-0.0075878697
219	0xbe483b19	-0.19553794
220	0x3d91e26b	0.07123264
221	0x3c200bea	0.0097684655
222	0x3e768e03	0.2407761
223	0xbe583e9e	-0.21117637
224	0xbc3b5935	-0.011434843
225	0x3e69b762	0.22823861
226	0xbd2e3ede	-0.042540424
227	0xbcdaa7c9	-0.026691334
228	0x3dd1c195	0.10242001
229	0xbea3be7e	-0.31981272
230	0xbd11901a	-0.035537817
231	0x3e6ff092	0.23431614
232	0x3d3218c1	0.04348064
233	0x3b89f75b	0.0042103953
234	0xbd381e3b	-0.044950705
235	0xbddb2ed3	-0.107022904
236	0x3c96e379	0.018419014
237	0x3e6a3d90	0.22875047
238	0xbb9b1a9a	-0.0047333958
239	0xbe37af28	-0.1793791
240	0x3dc4b2a1	0.09604383
241	0xbe3ddf2b	-0.18542163
242	0x3c4ebeef	0.012618764
243	0x3cd8b871	0.026455136
244	0xbeddeda3	-0.43345365
245	0xbdd026b1	-0.1016363
246	0xbd488b81	-0.048961166
247	0xbddb9752	-0.107222214
248	0x3db31217	0.08743685
249	0xbd2ab025	-0.04167189
250	0xbd4ae458	-0.04953417
251	0xbc58026b	-0.01318417
252	0x3cb01962	0.021496478
253	0x3b049420	0.002022989
254	0x3e84c1c0	0.2592907
255	0x3c7d91a8	0.015476622

encoder1.bias_hh_l0 f4 [512]
0	0xbdff9fa8	-0.12481624
1	0xbee97761	-0.4559889
2	0x3d97ed68	0.074183285
3	0x3e25390b	0.16135041
4	0x3e3d1244	0.18463999
5	0xbe1fd0ba	-0.15606967
6	0xbe70ffd3	-0.23535089
7	0x3e3c3847	0.18380843
8	0xbd8878cf	-0.066636674
9	0xbeab0c63	-0.33407888
10	0xbddad79b	-0.10685655
11	0x3dc584a0	0.09644437
12	0xbedd1b1a	-0.4318474
13	0xbea5fb5c	-0.32418334
14	0xbde9dece	-0.1141945
15	0xbddd9671	-0.1081971
16	0xbe021040	-0.12701511
17	0x3ea2da0c	0.31806982
18	0xbeb944aa	-0.361852
19	0xbea1c0e9	-0.3159249
20	0x3cf80c59	0.030279325
21	0x3d2fa605	0.042882938
22	0x3cffcea4	0.031226464
23	0xbe7becd2	-0.24602059
24	0x3c8f312d	0.017479504
25	0x3db9e134	0.09076157
26	0x3e3c6028	0.18396056
27	0xbe50ce45	-0.20391186
28	0xbd18b96d	-0.03728621
29	0xbcafea49	-0.02147402
30	0xbe9efcf2	-0.31052357
31	0x3e5b5242	0.21418098
32	0x3ccee58e	0.025255945
33	0xbd1b19ff	-0.03786659
34	0xbddc05ec	-0.10743317
35	0xbd0ebcb2	-0.034847923
36	0xbe31a9ea	-0.17349973
37	0xbec85647	-0.39128324
38	0xbe36bf7e	-0.17846486
39	0xbedecbeb	-0.43514952
40	0xbe3a8d26	-0.18217906
41	0xbf00bb16	-0.5028547
42	0xbd44296f	-0.047891077
43	0x3e625364	0.22102123
44	0xbeaa282c	-0.33233774
45	0xbdadf8aa	-0.084946945
46	0xbe11f45f	-0.14253376
47	0xbd3a9e99	-0.045561407
48	0xbd2a6024	-0.041595593
49	0xbe066007	-0.13122569
50	0xbe005748	-0.12533295
51	0xbe161571	-0.14656617
52	0xbe966e13	-0.29380855
53	0xbef03ee9	-0.46922997
54	0xbe67c2a0	-0.22632837
55	0xbd0322b3	-0.032015514
56	0xbdef52d4	-0.1168572
57	0xbdb434ba	-0.08799119
58	0xbdb8823f	-0.090092175
59	0xbc90f7c8	-0.017696276
60	0xbd44dd5a	-0.04806266
61	0xbd543883	-0.051811706
62	0xbf169089	-0.58814293
63	0xbdf8dc42	-0.12151386
64	0xbca43747	-0.02004589
65	0xbdff0209	-0.1245156
66	0xbe34d155	-0.17657979
67	0x3e13e3e8	0.14442408
68	0xbde9448f	-0.1139003
69	0xbccf0d77	-0.025274975
70	0xbe6e6c69	-0.23283543
71	0xbea11f51	-0.31469205
72	0xbe12c8bb	-0.14334385
73	0xbd59a15c	-0.0531324
74	0xbe4d9d8d	-0.20079632
75	0xbdf08d7a	-0.117457345
76	0xbdec8e76	-0.1155061
77	0x3d5a028e	0.053225093
78	0xbeaa4984	-0.33259213
79	0xbe6a65bb	-0.2289037
80	0x3c475bf6	0.012167921
81	0xbe41b17e	-0.18915364
82	0x3e3cbbff	0.1843109
83	0xbea350e3	-0.3189765
84	0xbf06fa52	-0.5272571
85	0x3cd03d91	0.025419982
86	0xbe4aec17	-0.19816624
87	0xbe82fb52	-0.25582367
88	0xbe9471ca	-0.28993064
89	0xbeb19f64	-0.34691918
90	0x3e6c1f8b	0.23058908
91	0xbd2acbd5	-0.041698296
92	0xbe72fdb4	-0.23729593
93	0xbe7f29bc	-0.24918264
94	0x3d746439	0.059665892
95	0xbcd3823d	-0.025818938
96	0xbe67a145	-0.22620113
97	0x3de28e14	0.110622555
98	0xbe037367	-0.12836991
99	0x3e016f2e	0.12640068
100	0xbcaac4a2	-0.020845715
101	0xbc53a9b9	-0.012918883
102	0xbecbe998	-0.39826655
103	0x3d81a4e4	0.063302785
104	0x3d30e3e7	0.043186095
105	0xbe08e09f	-0.13366936
106	0x3d7f195c	0.062280044
107	0xbe76aed2	-0.24090126
108	0xbe6d94c1	-0.23201276
109	0xbd3a1dba	-0.045438506
110	0x3d7656ae	0.060141258
111	0xbe343495	-0.17598183
112	0xbe0d090a	-0.1377298
113	0xbf09a9de	-0.5377482
114	0xbe36635c	-0.1781134
115	0x3a8950cd	0.0010476351
116	0x3e092abb	0.13395207
117	0xbd995a8d	-0.07487974
118	0xbe1a9ba1	-0.1509843
119	0xbea03ee2	-0.31297976
120	0xbebf7ebb	-0.37401375
121	0x3da94e96	0.08266942
122	0x3e32a463	0.17445521
123	0xbd0c39a8	-0.034234673
124	0x3e0650d7	0.13116775
125	0x3de86e99	0.1134922
126	0xbe704ef9	-0.23467626
127	0xbe87de77	-0.26536915
128	0xbde24322	-0.11047961
129	0xbcd2263a	-0.025652993
130	0x3d8f4376	0.06995289
131	0x3dc27418	0.094947994
132	0xbe0c367c	-0.13692659
133	0x3ecf56f5	0.4049603
134	0x3e21aefb	0.15789406
135	0x3cb3deae	0.021956768
136	0xbcb2dc03	-0.021833425
137	0xbe6e1d6e	-0.23253414
138	0x3d9960c9	0.074891634
139	0x3e783041	0.24237157
140	0xbdc8ac51	-0.09798492
141	0x3e298cf4	0.16557676
142	0xbe201e63	-0.15636592
143	0x3e2d3906	0.16916284
144	0xbd965022	-0.07339503
145	0xbdc186ee	-0.09449564
146	0x3c57dc26	0.013175046
147	0x3d927392	0.071509495
148	0x3d4129a6	0.04715886
149	0x3e0f57fa	0.13998404
150	0xbd06af5c	-0.03288208
151	0x3ebe51a5	0.37171665
152	0x3e315c1a	0.1732029
153	0x3e021fcc	0.12707442
154	0x3d344e0b	0.04401974
155	0xbd548678	-0.051886052
156	0xbe441bee	-0.1915128
157	0xbd817e77	-0.063229494
158	0x3d973bd0	0.07384455
159	0xbe23e5e2	-0.16005662
160	0x3db3b8c7	0.08775478
161	0xbd96fa63	-0.07371976
162	0xbddc6e4d	-0.10763226
163	0x3e111166	0.14166793
164	0xbdb5656e	-0.08857237
165	0xbda7728c	-0.08176145
166	0x3d705c76	0.058681928
167	0xbd949d5c	-0.072565764
168	0xbe2cd4a4	-0.16877991
169	0x3cbcf78d	0.02306726
170	0xbc8b3aac	-0.01699575
171	0x3d32049f	0.04346144
172	0xbdbeba91	-0.093129285
173	0x3e2bf699	0.16793288
174	0xbba3dc94	-0.00500066
175	0x3db218f6	0.08696167
176	0x3dec73e9	0.115455456
177	0x3daaf939	0.08348317
178	0x3d9e0c13	0.07717147
179	0x3d1f95f2	0.03896136
180	0xbd1d0ea9	-0.03834406
181	0xbc7e8104	-0.015533689
182	0xbbbc7c00	-0.0057520866
183	0x3d3975da	0.045278408
184	0x3c2b61db	0.010460342
185	0x3db5d6a0	0.08878827
186	0x3d990452	0.07471527
187	0x3cc72f1d	0.024314458
188	0xbdb98daa	-0.090602234
189	0x3e55fe75	0.20897849
190	0xbdf86188	-0.121279776
191	0x3c2c0981	0.010500313
192	0x3c99b242	0.018761758
193	0x3e1bd2ea	0.15217176
194	0xbe84fed4	-0.25975668
195	0x3d470607	0.048589732
196	0xbda42520	-0.080148935
197	0xbdd8d236	-0.105869696
198	0xbe28b371	-0.16474701
199	0xbd908ce9	-0.070581265
200	0x3e421294	0.189524
201	0x3e1c8f7a	0.15289107
202	0xbc86058f	-0.016360072
203	0x3d7f7ca5	0.06237473
204	0x3dd1e659	0.102490135
205	0xbdc8fe51	-0.09814132
206	0x3bebce9e	0.0071962615
207	0x3e3f9061	0.1870742
208	0x3d06c219	0.03289995
209	0x3d67399f	0.056451436
210	0x3db0dbf9	0.086357065
211	0xbdb5cfb6	-0.08877508
212	0x3c85c12c	0.016327463
213	0xbe80a9e0	-0.25129604
214	0x3e846fe4	0.25866616
215	0x3d5de4fc	0.054173455
216	0x3d8638bf	0.06553792
217	0xbb975e8e	-0.004619426
218	0xbc81bb9d	-0.015836531
219	0xbdc3d60d	-0.09562311
220	0x3e351fa8	0.17687857
221	0x3d63c021	0.05560315
222	0x3e0999bc	0.13437551
223	0xbe0a1e8a	-0.13488212
224	0x3c49c048	0.01231391
225	0x3eb96432	0.36209255
226	0xbd90ddd9	-0.07073564
227	0x3d467cc1	0.04845882
228	0x3dc80199	0.0976593
229	0xbe9d85e5	-0.30766216
230	0x3cd6ad1a	0.026205588
231	0x3ea9781f	0.33099458
232	0x3b9cb1a9	0.004781921
233	0xbdbac7bc	-0.091201276
234	0xbd284f3e	-0.041091196
235	0xbd9d9d78	-0.076960504
236	0x3d79436b	0.06085531
237	0x3e3641c3	0.17798524
238	0xbd216774	-0.0394053
239	0xbe582b1b	-0.21110193
240	0x3d76f56a	0.06029264
241	0xbe3f8c63	-0.18705897
242	0xbdfa48f7	-0.12220948
243	0x3d5e81da	0.054323055
244	0xbe97aa70	-0.2962222
245	0xbd566004	-0.05233766
246	0xbd904a28	-0.07045394
247	0xbe5a5c32	-0.21324232
248	0x3db7e85e	0.089798674
249	0x3d23861d	0.039922822
250	0xbcb7af75	-0.022422532
251	0x3dd1dbc6	0.102469966
252	0x3cf7e3e3	0.030260032
253	0x3defe21c	0.11713049
254	0x3e188409	0.14894117
255	0xbbf68db6	-0.0075242175

bn.weight f4 [128]
0	0x3f9a5e67	1.2060059
1	0x3f94789b	1.1599306
2	0x3f879554	1.0592446
3	0x3f5db035	0.86596996
4	0x3f409537	0.75227684
5	0x3f61c744	0.8819468
6	0x3fa12293	1.2588676
7	0x3f7245c4	0.94637704
8	0x3f76b43c	0.96368766
9	0x3f6817e1	0.90661436
10	0x3f4998a1	0.7874852
11	0x3f57026a	0.8398806
12	0x3f8fcfdd	1.123531
13	0x3fa2f77b	1.2731775
14	0x3f83cc7e	1.0296781
15	0x3f5bd569	0.85872513
16	0x3f54e476	0.83161104
17	0x3f5e1f69	0.8676668
18	0x3f8c2c30	1.0950985
19	0x3fb29bfc	1.3953853
20	0x3f89453b	1.0724252
21	0x3f909b6d	1.1297432
22	0x3f5ffbb1	0.87493426
23	0x3f78f28c	0.972451
24	0x3f8a23cb	1.0792173
25	0x3f587535	0.84553844
26	0x3f7d8851	0.9903613
27	0x3f9313f8	1.1490469
28	0x3f3d6454	0.73981214
29	0x3f845b08	1.034028
30	0x3f85d7f1	1.0456525
31	0x3f660027	0.8984398
32	0x3f5ae3b8	0.8550372
33	0x3f8587ba	1.0432045
34	0x3f580ea0	0.84397316
35	0x3f556751	0.83360773
36	0x3f7ae4cf	0.98005384
37	0x3f934e71	1.1508313
38	0x3f862063	1.0478634
39	0x3fa1b336	1.2632816
40	0x3f798e93	0.97483176
41	0x3facf6f6	1.3512866
42	0x3f9d4f52	1.2289832
43	0x3f2e8de8	0.6818528
44	0x3f8b7035	1.0893618
45	0x3f733867	0.9500794
46	0x3f3887ff	0.72082514
47	0x3f8fffb4	1.1249909
48	0x3f22ea47	0.6363873
49	0x3f7e1f04	0.99266076
50	0x3f95794e	1.1677644
51	0x3f864d85	1.0492407
52	0x3f6da6eb	0.9283282
53	0x3f8fcfcc	1.123529
54	0x3f8b9e4f	1.0907687
55	0x3f6ffae5	0.9374221
56	0x3fa42683	1.2824253
57	0x3f5a555d	0.85286504
58	0x3f8bef35	1.0932375
59	0x3f6b164a	0.91830885
60	0x3f7bfebc	0.9843557
61	0x3f6b7386	0.9197315
62	0x3f94d1cc	1.1626525
63	0x3f3c4496	0.73542154
64	0x3f86b8a8	1.0525103
65	0x3f759518	0.95930624
66	0x3f099d4b	0.53755635
67	0x3f96beb6	1.177695
68	0x3f392dea	0.72335684
69	0x3f7d58c9	0.989636
70	0x3fa0e580	1.2570038
71	0x3fb71f83	1.4306492
72	0x3f9eb639	1.239936
73	0x3f99da92	1.2019827
74	0x3f9415f1	1.1569196
75	0x3f8bd60d	1.0924698
76	0x3f96595e	1.1746023
77	0x3f6c1f9e	0.92235744
78	0x3f9a1e23	1.2040447
79	0x3f895fce	1.0732362
80	0x3f89fbab	1.0779928
81	0x3f90301e	1.1264684
82	0x3f7d4c33	0.98944396
83	0x3f5055ed	0.8138111
84	0x3fa9c9b3	1.3264679
85	0x3f43d9ac	0.76504016
86	0x3f9abaf8	1.2088308
87	0x3f54b9c0	0.8309593
88	0x3f90951e	1.1295507
89	0x3f8833a6	1.0640762
90	0x3f33759f	0.7010135
91	0x3f43f5dd	0.7654703
92	0x3fb538ef	1.4158
93	0x3f725d49	0.9467359
94	0x3f9a988c	1.2077804
95	0x3f498469	0.78717667
96	0x3f27395b	0.6532189
97	0x3f3c736a	0.7361361
98	0x3f797a72	0.9745246
99	0x3f523261	0.8210812
100	0x3f5d187f	0.86365503
101	0x3f3ffa5b	0.7499139
102	0x3fbca71b	1.4738497
103	0x3f86d3cd	1.0533386
104	0x3f63a95a	0.88930285
105	0x3f981a6e	1.1883066
106	0x3f39b941	0.725483
107	0x3f1ad9d3	0.60488623
108	0x3fad7b19	1.3553191
109	0x3f658466	0.8965515
110	0x3f6f1ee9	0.9340654
111	0x3f3669d1	0.71255213
112	0x3f7ca4a8	0.98688745
113	0x3fa03d55	1.2518717
114	0x3f6c4db5	0.9230607
115	0x3f32de47	0.6987042
116	0x3f2dbd63	0.67867106
117	0x3f19d679	0.60092884
118	0x3f4dad36	0.80342424
119	0x3f7d3b64	0.9891875
120	0x3fa0f7d9	1.2575637
121	0x3f4bbe7d	0.7958754
122	0x3f3a0503	0.726639
123	0x3f8c9c43	1.0985187
124	0x3f50540f	0.81378263
125	0x3f852e44	1.0404744
126	0x3fbb2016	1.4619167
127	0x3f86939d	1.0513798

bn.bias f4 [128]
0	0x3e280fee	0.16412327
1	0xbeaf6815	-0.34259096
2	0xbdd9b454	-0.10630098
3	0xbe6fcc9d	-0.23417898
4	0x3e84da7f	0.2594795
5	0xbe72522c	-0.23664159
6	0xbc8d63e7	-0.017259551
7	0x3e345bef	0.17613195
8	0x3e5cd6f2	0.2156637
9	0xbe654549	-0.22389711
10	0x3f4f49b4	0.8097184
11	0xbe7227cf	-0.23647998
12	0xbd313639	-0.0432646
13	0x3e297a98	0.16550672
14	0x3b893dc0	0.0041882694
15	0xbf3fe9f4	-0.7496636
16	0x3f09e540	0.5386543
17	0x3ca64eac	0.020301186
18	0xbe8e312d	-0.27771893
19	0x3e6dc74f	0.23220561
20	0x3ed989dc	0.4248799
21	0xbdc69544	-0.09696439
22	0xbf176af8	-0.59147596
23	0x3d2ba811	0.041908327
24	0xbdfa3b5f	-0.122183554
25	0x3d10d739	0.035361502
26	0xbf00aa3a	-0.50259745
27	0x3e6dfe6e	0.23241588
28	0xbe2660a1	-0.16247799
29	0x3e986a63	0.29768667
30	0x3e4c0611	0.19924189
31	0xbdc08c44	-0.094017535
32	0x3ebddd4e	0.37082905
33	0x3e36d6cd	0.17855377
34	0xbd37d6d6	-0.044882618
35	0xbf2d64e7	-0.6773209
36	0xbf2bf11b	-0.6716477
37	0x3e17cc4e	0.1482403
38	0xbe5a3f18	-0.21313131
39	0x3f205669	0.6263185
40	0x3f2e9dae	0.6820935
41	0x3ec14212	0.3774572
42	0x3e4188b3	0.18899803
43	0xbf15416a	-0.5830294
44	0x3ebbeec4	0.367056
45	0xbd01ff5f	-0.03173768
46	0xbd8dd193	-0.06924739
47	0xbed05f73	-0.40697822
48	0x3f15d763	0.5853178
49	0x3d3becfb	0.0458803
50	0xbed1e087	-0.40991613
51	0x3e6e2758	0.23257196
52	0x3d26fb3b	0.040766936
53	0xbdccbd0d	-0.09996996
54	0xbcabd9ab	-0.020977816
55	0x3e0fb4a4	0.14033753
56	0xbd338426	-0.0438272
57	0xbea37bfe	-0.31930536
58	0xbe7b6600	-0.24550629
59	0xbeb9103f	-0.36145207
60	0x3e79f98f	0.24411605
61	0x3d649da2	0.055814393
62	0x3eac2ae8	0.33626485
63	0x3ef439d9	0.47700384
64	0x3dd59e56	0.10430591
65	0xbf0dcb90	-0.55388737
66	0x3ef6371b	0.48088917
67	0xbdb9cb80	-0.09072018
68	0x3e100186	0.14063081
69	0x3e2a5617	0.16634403
70	0x3f17cf6c	0.59300876
71	0x3e4aa4aa	0.19789377
72	0xbe4ce00f	-0.20007347
73	0x3d1863da	0.0372046
74	0x3cd9752f	0.026545135
75	0xbc256496	-0.010094782
76	0xbe0c02b6	-0.13672909
77	0x3e18e7c7	0.14932166
78	0xbefde507	-0.49588796
79	0xbea12015	-0.3146979
80	0xbded4155	-0.11584727
81	0x3e131472	0.14363268
82	0xbed07cbb	-0.40720162
83	0xbec450d1	-0.38342908
84	0x3f069846	0.525761
85	0x3ecc9de6	0.39964217
86	0x3d8a9ed8	0.06768578
87	0xbd213d2b	-0.039364975
88	0xbd470e12	-0.048597403
89	0xbd039e38	-0.03213331
90	0xbec07d75	-0.37595716
91	0xbda31179	-0.07962317
92	0xbdff6711	-0.1247083
93	0x3d57f8f3	0.05272765
94	0x3deec0af	0.11657845
95	0x3ed58c47	0.41708586
96	0x3f1869b1	0.5953627
97	0xbe1100fd	-0.14160533
98	0x3dea0018	0.11425799
99	0xbed6fcfc	-0.41989887
100	0x3e613827	0.21994077
101	0xbe8eedfd	-0.27915946
102	0xbe4b4fe1	-0.1985469
103	0x3d3cbd72	0.046079107
104	0xbf24f371	-0.6443396
105	0x3eb1bb12	0.34713036
106	0x3f3696f9	0.71324116
107	0x3d4a4866	0.04938545
108	0x3e1d2212	0.15345028
109	0xbed39bd7	-0.41329834
110	0xbe299cac	-0.16563672
111	0xbe31f155	-0.17377217
112	0x3efbc5b1	0.49174264
113	0x3ecef21e	0.40419096
114	0xbe4d30a5	-0.20038088
115	0x3f0f5792	0.55992997
116	0xbefac34f	-0.48977134
117	0xbf147327	-0.5798821
118	0x3ec89082	0.3917275
119	0xbf48a12e	-0.7837094
120	0xbe0853f7	-0.1331328
121	0xbec5affa	-0.38610822
122	0x3e9220c8	0.28540635
123	0x3da2e8da	0.07954569
124	0x3d525695	0.051352102
125	0x3e191235	0.14948352
126	0x3cf2daa3	0.02964527
127	0x3e546448	0.2074138

bn.running_mean f4 [128]
0	0xbdc0dcb3	-0.09417095
1	0x3dae5477	0.08512204
2	0xbd64c790	-0.05585438
3	0xbe085c52	-0.13316467
4	0xbdfacc07	-0.122459464
5	0x3cfed52c	0.031107508
6	0xbd02306c	-0.03178446
7	0xbd724117	-0.059144106
8	0x3c023196	0.0079463925
9	0xbcc18e66	-0.023627471
10	0x3a1b490b	0.0005923665
11	0x3d49ad41	0.049237493
12	0xbc994565	-0.018709848
13	0x3cdbcad2	0.02683011
14	0xbdac6008	-0.08416754
15	0xbc93b230	-0.018029302
16	0x3df2e5ba	0.11860223
17	0xbddc6e3d	-0.10763214
18	0x3e62af0b	0.22137086
19	0x3cecabce	0.028890517
20	0x3d7d168a	0.061789073
21	0x3c96c934	0.018406488
22	0x3ba652b8	0.005075779
23	0xbd539802	-0.051658638
24	0x3e1cd940	0.1531725
25	0xbd925a99	-0.071461864
26	0xbd20f2ca	-0.03929404
27	0x3dd81c3d	0.10552261
28	0xbc2e4f09	-0.010638961
29	0xbdce62e4	-0.10077456
30	0x3cfec9c9	0.031102078
31	0x3cfb7658	0.03069608
32	0x3cb4f8ec	0.022091351
33	0xbde913df	-0.11380743
34	0x3dd7e1f6	0.105411455
35	0x3cbaa2ec	0.022782765
36	0x3d1b22cc	0.03787498
37	0x3cefe028	0.02928169
38	0x3df962c1	0.12177039
39	0x3d04cfb3	0.03242464
40	0x3d94eddb	0.0727193
41	0x3ccf47c5	0.025302777
42	0xbe379905	-0.17929466
43	0xbc325576	-0.010884633
44	0xbe9159d3	-0.28388843
45	0xbd892f8e	-0.066985235
46	0xba020bd6	-0.000496087
47	0x3e537ca7	0.2065302
48	0xbd02c6cd	-0.031927872
49	0x3bf1946e	0.0073724305
50	0x3e5d5a42	0.21616462
51	0xbdc3a4cd	-0.09552918
52	0x3d7417aa	0.05959288
53	0x3c86e04b	0.016464373
54	0x3ceccaa9	0.02890523
55	0x39eba79a	0.00044947566
56	0xbcfc1abb	-0.030774465
57	0x3c174c37	0.00923448
58	0x3c988362	0.018617336
59	0xbdcab794	-0.09898296
60	0xbd4a151f	-0.04933655
61	0x3d716518	0.0589343
62	0xbdc89e2f	-0.09795796
63	0xbdf3f2fa	-0.119115785
64	0xbd9d80c8	-0.07690579
65	0xbd4ee0e8	-0.050507456
66	0xbda2ad62	-0.079432264
67	0x3e7903a6	0.24317798
68	0x3cd9397a	0.026516665
69	0xbdd578db	-0.10423442
70	0x3cc0becd	0.02352848
71	0xbe7e02c3	-0.24805741
72	0x3eb83639	0.3597887
73	0x3e0f59a2	0.13999036
74	0x3c1d5e01	0.009604932
75	0xbdf1a413	-0.11798873
76	0xbd428e52	-0.04749901
77	0xbd7f2dc1	-0.062299494
78	0xbd02f274	-0.031969503
79	0x3dbc14a0	0.091836214
80	0x3e5be4b7	0.21473967
81	0x3cf67d0a	0.03008892
82	0xbdfe075b	-0.12403747
83	0xbc747da7	-0.014922536
84	0x3d33fc51	0.0439418
85	0x3d33fb74	0.043940976
86	0xbdbb4a48	-0.091450274
87	0xbd125507	-0.03572562
88	0xbc314b4d	-0.010821176
89	0xbc4dae0a	-0.012553701
90	0x3dbebecb	0.093137346
91	0xbd3a246d	-0.045444895
92	0xbeaa7427	-0.33291742
93	0x3d274d58	0.040845245
94	0x3e89bc20	0.2690134
95	0xbd6d155e	-0.057881705
96	0x3c1b59bf	0.009481846
97	0xbe2988c9	-0.16556086
98	0xbe366a72	-0.17814043
99	0x3d8040f6	0.0626239
100	0xbe184403	-0.14869694
101	0xbd588080	-0.052856922
102	0x3ec9add5	0.39390436
103	0x3e324c9a	0.17412034
104	0xbca71fba	-0.02040087
105	0xbe3c6ac3	-0.18400101
106	0x3bce1808	0.006289486
107	0xbc47ed31	-0.012202547
108	0xbf0b1e26	-0.5434288
109	0x3e16cbb5	0.14726146
110	0x3e8b4baf	0.2720618
111	0x3dcf1bb6	0.10112707
112	0x3c4a5c4f	0.01235111
113	0xbdc4276c	-0.095778316
114	0xbcaf1583	-0.021372562
115	0xbcfc0fb5	-0.030769208
116	0x3db27e5a	0.08715506
117	0x3cffa1c7	0.031205071
118	0xbd9c6a31	-0.07637442
119	0xbce6fc49	-0.02819647
120	0x3dfe330e	0.12412082
121	0x3d501872	0.050804563
122	0x3cb458ac	0.022014938
123	0xbd9d43c8	-0.07678944
124	0xbdfc19fe	-0.12309645
125	0x3e80e809	0.2517703
126	0xbdb59cfd	-0.08867834
127	0xbe6a2f5c	-0.22869629

bn.running_var f4 [128]
0	0x3d4005f6	0.046880685
1	0x3d0c936e	0.034320287
2	0x3ca0f7b1	0.019649358
3	0x3d865417	0.065590076
4	0x3e114c44	0.1418925
5	0x3dcfcf95	0.10147015
6	0x3c262b51	0.010142163
7	0x3d809a25	0.06279401
8	0x3dbb6c35	0.09151498
9	0x3ae3edf6	0.0017389643
10	0x3d3cf0ae	0.046127968
11	0x3d8b4410	0.06800091
12	0x3b509412	0.0031826538
13	0x3c2ff5fe	0.010739801
14	0x3c8121d2	0.015763197
15	0x3cb6620d	0.022263551
16	0x3db825c0	0.08991575
17	0x3de287b9	0.11061043
18	0x3e02e609	0.12783064
19	0x3c0cc63d	0.008592186
20	0x3d3c3096	0.045944773
21	0x3d0842d4	0.033266857
22	0x3d30b7e2	0.043144114
23	0x3e00fbd5	0.12596066
24	0x3da959de	0.08269094
25	0x3df0233d	0.11725471
26	0x3d07c3a1	0.03314555
27	0x3d37acfd	0.04484271
28	0x3cefc06a	0.029266555
29	0x3ca39cc1	0.019972207
30	0x3bbe146f	0.0058007757
31	0x3d8622b4	0.06549588
32	0x3daaa577	0.08332341
33	0x3d7c9bb0	0.061671913
34	0x3d9ead4f	0.077479
35	0x3d107ead	0.035277057
36	0x3d00824e	0.03137427
37	0x3b8fd29a	0.0043891193
38	0x3d3729b0	0.04471749
39	0x3b784bb1	0.0037886912
40	0x3c9c12c9	0.019051926
41	0x3b8557fa	0.0040693255
42	0x3e1dab3e	0.15397355
43	0x3dabbd3f	0.08385705
44	0x3e2dffac	0.16992062
45	0x3d372db7	0.04472133
46	0x3cbf3bb4	0.023343898
47	0x3d96b8cc	0.07359466
48	0x3d174f6d	0.03694098
49	0x3cc0c97e	0.023533579
50	0x3dfd73cc	0.12375602
51	0x3e0d56ce	0.13802645
52	0x3cd21923	0.025646752
53	0x3b6ba0ec	0.0035954071
54	0x3c36b15f	0.011150687
55	0x3c983dca	0.01858415
56	0x3c2aa4f5	0.010415305
57	0x3d32fca4	0.043697968
58	0x3c3f460a	0.011674413
59	0x3dae2562	0.08503224
60	0x3cf1973a	0.029491056
61	0x3d24cc23	0.040233742
62	0x3d4d792e	0.050164394
63	0x3dbeafcf	0.093108766
64	0x3c9cb0e0	0.01912731
65	0x3ce88811	0.028385194
66	0x3dcc9e9a	0.09991188
67	0x3e000fe0	0.12506056
68	0x3d401faf	0.046905216
69	0x3d4078f4	0.04699035
70	0x3b60d6dc	0.0034307754
71	0x3e05b097	0.13055645
72	0x3e5174ab	0.20454662
73	0x3d3935eb	0.045217436
74	0x3be3cddf	0.006952032
75	0x3d8f8087	0.070069365
76	0x3cb188ba	0.021671642
77	0x3d49f584	0.049306408
78	0x3c956495	0.018236438
79	0x3d3b5599	0.04573593
80	0x3d58d3ad	0.052936245
81	0x3bff2740	0.0077866614
82	0x3d783430	0.060596645
83	0x3bbea79a	0.0058183195
84	0x3bd42739	0.0064744023
85	0x3d0eb9c1	0.034845117
86	0x3d9ddd7c	0.077082604
87	0x3ce9fc56	0.028562706
88	0x3c13bee9	0.0090176845
89	0x3b5b5261	0.003346585
90	0x3e172004	0.14758307
91	0x3d634644	0.055486932
92	0x3dcf9d8b	0.10137471
93	0x3c31f765	0.010862206
94	0x3dbe9550	0.09305823
95	0x3de6d7c1	0.112716205
96	0x3ce627bd	0.02809512
97	0x3e194f77	0.1497172
98	0x3df0a105	0.11749462
99	0x3d4dbadd	0.050227035
100	0x3e11521f	0.14191483
101	0x3d7913f6	0.06081005
102	0x3e261db9	0.16222276
103	0x3de3edea	0.11129363
104	0x3c9179b7	0.017758233
105	0x3db41b59	0.08794279
106	0x3d2e3f57	0.042540874
107	0x3cb9f288	0.022698656
108	0x3e3749e9	0.17899288
109	0x3de198d3	0.11015477
110	0x3e0a0b27	0.13480817
111	0x3dbe024d	0.092777826
112	0x3c7dda11	0.015493886
113	0x3da0d747	0.07853561
114	0x3caffca8	0.02148278
115	0x3d77f56e	0.060536794
116	0x3dd18ee4	0.10232332
117	0x3d8df1ca	0.06930883
118	0x3db6d9a5	0.08928231
119	0x3bd13571	0.0063845445
120	0x3cf12a25	0.029439041
121	0x3d8fd418	0.070228755
122	0x3d344d6e	0.044019155
123	0x3c3707ce	0.011171294
124	0x3dccda80	0.10002613
125	0x3e0b75c3	0.13619141
126	0x3d1b8253	0.037966084
127	0x3db71a86	0.08940606

encoder2.weight_ih_l0 f4 [256, 128]
0	0x3e10239e	0.14076087
1	0xbd7e15ee	-0.062032633
2	0x3dafd61c	0.0858576
3	0x3e57dc0e	0.21080038
4	0x3db150de	0.08658002
5	0x3e7accd0	0.24492192
6	0x3e4dab84	0.2008496
7	0x3c05f8c6	0.008176988
8	0xbe398b95	-0.18119653
9	0x3e504d89	0.20342077
10	0x3d7ff3d8	0.062488407
11	0xbe66c1e5	-0.22534902
12	0x3c2578ef	0.010099634
13	0xbd44c005	-0.048034687
14	0x3e36f077	0.17865168
15	0x3e7c2a6f	0.24625562
16	0xbe8ab18a	-0.27088577
17	0xbbcd014d	-0.0062562586
18	0x3e4030a7	0.1876856
19	0x3dea80a9	0.11450321
20	0xbe6a9182	-0.2290707
21	0xbdf31db4	-0.118709
22	0x3ca9f417	0.020746274
23	0x3e92abce	0.28646702
24	0x3e04cafb	0.12968056
25	0xbe1f6668	-0.15566409
26	0x3e74588f	0.23861907
27	0xbe59b173	-0.21259098
28	0x3e0fe26c	0.14051217
29	0xbd0810e1	-0.033219222
30	0xbe73057b	-0.2373256
31	0x3e6524dd	0.22377343
32	0xbdd305f8	-0.10303873
33	0xbda7163d	-0.081585385
34	0xbe1bd9b6	-0.15219769
35	0x3ebc9d68	0.3683884
36	0xbdeaf3be	-0.114722714
37	0xbe0791e9	-0.13239254
38	0x3d14006a	0.036133207
39	0xbf04104d	-0.51587373
40	0xbed0b2dc	-0.4076146
41	0xbea89d89	-0.3293269
42	0xbdf803cc	-0.12110099
43	0x3e9a64d0	0.3015504
44	0xbdb66e1a	-0.08907719
45	0xbc3886b9	-0.011262589
46	0x3e17525d	0.14777513
47	0xbe1cc9ad	-0.15311308
48	0xbea632a3	-0.32460508
49	0xbe4fb78f	-0.20284866
50	0xbc2fe5d6	-0.0107359495
51	0x3dbdedcc	0.09273872
52	0xbd788273	-0.06067128
53	0xbda3365d	-0.07969353
54	0xbe2e5be2	-0.17027238
55	0xbeb57e97	-0.35448143
56	0x3eb73c19	0.35788038
57	0x3e32bfbf	0.17455958
58	0xbe468380	-0.19386101
59	0x3c9c3f64	0.019073196
60	0x3dc3d02a	0.095611885
61	0xbec34dec	-0.38145387
62	0x3d346af3	0.044047307
63	0xbb53af60	-0.0032300577
64	0x3e0a4452	0.13502625
65	0x3e77e83d	0.24209686
66	0xbc455cce	-0.012046052
67	0x3d7be315	0.06149586
68	0x3dbfa462	0.093575254
69	0x3e67ec73	0.22648792
70	0xbe259d1d	-0.16173215
71	0x3dcd3d3b	0.100214444
72	0xbd9c4291	-0.07629884
73	0xbe8a2556	-0.2698161
74	0xbeb1be3c	-0.3471545
75	0x3e9178f7	0.284126
76	0x3d3c1021	0.04591382
77	0x3e8d32fd	0.27577963
78	0x3e108a5a	0.14115277
79	0xbe144e05	-0.14482887
80	0x3d1b5769	0.037925158
81	0xbe45ea6a	-0.19327703
82	0x3e3d48e6	0.1848484
83	0xbccbed00	-0.024893284
84	0xbee837c0	-0.45355034
85	0x3cbbc135	0.022919277
86	0x3d80fcc8	0.06298214
87	0x3e1d1a92	0.15342167
88	0x3eb2260c	0.34794652
89	0x3e95a428	0.29226804
90	0x3c53dd07	0.012931115
91	0x3c59959c	0.013280299
92	0x3e324024	0.1740728
93	0xbecd509f	-0.40100572
94	0xbd3ebf8e	-0.0465694
95	0xbe18dd65	-0.14928205
96	0xbec598ce	-0.38593143
97	0x3d846749	0.064650126
98	0xbc8c590c	-0.017132305
99	0x3dc32a6a	0.09529574
100	0x3e0123c9	0.12611307
101	0x3e07288e	0.13199064
102	0xbddbfb18	-0.10741252
103	0xbd268e54	-0.04066308
104	0x3ee380bc	0.44434154
105	0xbe184750	-0.14870954
106	0xbea0db59	-0.3141735
107	0xbd81a7c6	-0.06330828
108	0x3c0a04a3	0.008423957
109	0xbc65f645	-0.014035766
110	0x3dfe8683	0.12428
111	0x3d80e235	0.062931456
112	0xbeb8c0c8	-0.3608458
113	0xbe09f2e0	-0.13471556
114	0x3e37c0c3	0.17944627
115	0xbe086961	-0.13321449
116	0x3e4a17fa	0.19735709
117	0x3da6ebb4	0.081504256
118	0xbe812532	-0.2522369
119	0x3e201853	0.15634279
120	0xbdc0a89b	-0.09407159
121	0x3e6a0ed5	0.2285722
122	0xbc221771	-0.009893284
123	0xbda2fc63	-0.07958295
124	0x3dea992b	0.11454996
125	0xbe14fbf9	-0.14549245
126	0xbddc7dc3	-0.10766175
127	0xbd905056	-0.07046573
128	0x3e944129	0.28955963
129	0x3e4d871c	0.20071071
130	0xbe19f219	-0.15033759
131	0x3e07d90f	0.13266395
132	0x3bd97687	0.006636444
133	0xbebfc0b9	-0.37451723
134	0x3e892476	0.2678563
135	0xbe12abc0	-0.1432333
136	0xbd715fd1	-0.05892927
137	0xbe515202	-0.2044144
138	0x3ea1563a	0.31511098
139	0xbe554425	-0.20826776
140	0xbe29bce8	-0.16575968
141	0xbca08ec4	-0.019599326
142	0xbdf106b3	-0.11768856
143	0x3d3b43f5	0.045719106
144	0x3d670eb5	0.05641051
145	0x3888b9aa	6.519568e-05
146	0xbd305d56	-0.043057762
147	0x3ddd2e14	0.10799804
148	0xbd8a8f59	-0.06765623
149	0xbddf5a46	-0.1090589
150	0xbef9362b	-0.4867414
151	0x3d8bcde4	0.0682638
152	0xbf1d352c	-0.6140926
153	0xbd664763	-0.056220423
154	0xbe8b7fc8	-0.27245927
155	0x3dcfe7a7	0.10151606
156	0xbe2e1969	-0.1700188
157	0x3e80cc6e	0.25155967
158	0x3c7b4ec5	0.015338604
159	0x3c03119a	0.007999802
160	0x3de1e62b	0.11030229
161	0x3e0fb2a7	0.14032994
162	0xbe0ba134	-0.13635713
163	0xbd993c06	-0.07482152
164	0xbec46b75	-0.38363233
165	0x3e49a273	0.19690876
166	0xbed1ba74	-0.40962565
167	0xbc38e235	-0.011284401
168	0x3e4f9df8	0.20275104
169	0xbd05fa09	-0.032709155
170	0xbe0c02a0	-0.13672876
171	0xbdc854ce	-0.097818
172	0xbdf23616	-0.11826722
173	0xbe0c0d86	-0.13677034
174	0x3e2b63e8	0.1673733
175	0xbeab2aea	-0.33431178
176	0x3e88559d	0.26627818
177	0xbe295422	-0.16536
178	0xbddb8a55	-0.10719744
179	0x3e26f632	0.16304854
180	0xbdbe5d11	-0.09295095
181	0xbdfce484	-0.123482734
182	0xbe53d73d	-0.20687576
183	0xbdafe1f7	-0.08588021
184	0x3e4b9e69	0.19884647
185	0xbe0aab20	-0.13541842
186	0xbe10fb0f	-0.14158271
187	0xbd2f8d54	-0.04285939
188	0xbd1e5292	-0.038652964
189	0xbe9971df	-0.2996969
190	0x3de03d6d	0.10949216
191	0x3ccc183c	0.0249139
192	0x3e6559b8	0.22397506
193	0xbeda99e1	-0.42695525
194	0x3dd4581c	0.10368368
195	0xbe3c0098	-0.18359601
196	0x3eb18ce4	0.34677804
197	0x3e4af421	0.1981969
198	0xbda80613	-0.082042836
199	0xbe3de646	-0.18544874
200	0x3deb3d72	0.11486329
201	0xbe5c532e	-0.21516106
202	0xbe2948c0	-0.16531658
203	0x3e7c2865	0.24624784
204	0xbdf0ab61	-0.11751438
205	0xbe9f4f21	-0.31115058
206	0x3dd6d4c1	0.10489798
207	0x3d84b0b0	0.06479013
208	0xbe0f4a00	-0.13993073
209	0x3caa2f86	0.020774614
210	0xbe4bd758	-0.19906366
211	0xbdfd0bc6	-0.12355761
212	0x3de662f3	0.11249342
213	0x3dab81da	0.083743766
214	0xbdc1d16b	-0.094637714
215	0xbe05d797	-0.13070522
216	0xbd8cb0c0	-0.0686965
217	0x3c6125fa	0.0137419645
218	0x3e3db9a6	0.1852785
219	0xbeaff6ac	-0.34367883
220	0xbe9f3598	-0.31095576
221	0x3e31a336	0.17347416
222	0x3da709f2	0.08156194
223	0xbd7a9510	-0.061177313
224	0x3e3652cf	0.17805026
225	0xbe855215	-0.26039186
226	0x3e1bee2e	0.15227577
227	0x3c90a882	0.017658476
228	0xbdf60480	-0.12012577
229	0xbe02b416	-0.1276401
230	0x3e5f9281	0.2183323
231	0xbe6153fe	-0.22004697
232	0xbd0fa789	-0.035071883
233	0x3aef1a01	0.0018242003
234	0x3df1eb83	0.118124984
235	0x3d16b864	0.036796942
236	0xbb007ca1	-0.0019605535
237	0xbe289794	-0.16464072
238	0xbd77dd66	-0.060513876
239	0xbcca2175	-0.024674157
240	0x3e0d40ec	0.13794297
241	0x3d059f2e	0.03262251
242	0x39ea3c1c	0.00044676743
243	0x3a92211e	0.0011148786
244	0xbd254161	-0.040345553
245	0xbdf1ee03	-0.11812975
246	0x3b0ad2b3	0.0021182715
247	0xbd78c471	-0.060734216
248	0x3dcfb1d9	0.101413436
249	0xbd20f037	-0.039291587
250	0x3e3bd277	0.18342005
251	0x3ea16805	0.31524673
252	0x3c313475	0.010815729
253	0xbd829b91	-0.06377328
254	0xbe4bbfbf	-0.19897364
255	0x3dd65917	0.10466211
